model.pt (torch, 5684 bytes, 6 tensors)

layers.0.weight f4 [8, 57]
0.5400267 -0.15176177 0.55900455 -0.20092395 0.07209918 -0.36414912 0.68689615 -0.5340121
-0.45200974 -0.42733034 -0.4303716 -0.11291754 -0.12667406 -0.3795854 -0.019760845 0.43371212
0.28555125 0.5540527 0.5365228 0.43560895 0.33835065 -0.124112405 0.21960935 0.51220906
-0.4766107 -0.17490874 -0.14796476 -0.43846318 0.121144965 -0.41058284 -0.124568954 -0.0683738
0.13149665 -0.022270609 0.2157507 -0.25474736 0.057361912 0.41737506 0.386195 0.35358348
0.38699207 0.44830322 0.5665706 -0.028149081 0.13171595 0.43112192 -0.23171642 0.27546066
0.37695196 -0.070493 0.116131715 -0.018014036 0.32646292 -0.37012652 -0.06589482 -0.18411367
0.42765287 -0.1296887 0.10172044 0.2917879 0.6419109 0.37325 0.24956061 0.17727941
0.23916695 0.33975583 0.5282151 -0.12802477 -0.16557346 0.16743489 0.15189041 0.4270016
-0.05609002 0.58029675 -0.41277978 -0.31722394 -0.2857009 0.04165284 -0.207805 0.056263488
0.60063195 0.13478747 0.20393683 0.25441748 0.11985445 0.34972683 0.09320292 0.17493482
-0.39086843 0.47905225 -0.3129776 0.56363493 -0.3664798 0.00625749 -0.1853087 0.17071667
0.6159199 0.31603298 0.5224432 0.029136553 -0.11644101 -0.14919385 0.73147863 -0.39979753
0.26822147 0.27505675 0.5487112 0.11367388 -0.2279844 0.612099 0.10730661 0.37913305
0.4391098 0.33203048 0.042366084 0.27137697 -0.09934266 0.26862302 0.5388027 -0.05281549
-0.112502515 -0.08864738 -0.08861552 -0.11774992 -0.49462014 0.298956 -0.27346042 0.07495368
0.3878594 -0.11231657 -0.15248935 -0.14374794 -0.14196526 -0.049163423 0.78820586 -0.26842964
0.38112688 -0.21687078 0.041524153 -0.2846906 0.13432992 -0.030511556 0.44229975 0.14814292
-0.033972595 -0.34777576 0.5997471 0.042770784 0.066654325 -0.34047335 0.47945166 -0.080275066
0.68684965 -0.4084214 0.3478019 -0.1752001 -0.17475764 0.057318397 -0.090518855 0.051527556
-0.3658804 0.5223276 0.52275074 0.4011543 0.55270106 -0.0324953 -0.03894194 0.022066245
0.47134247 0.39899975 0.20027336 0.5257236 0.17061792 -0.5985607 -0.09593491 0.054763466
0.40040007 -0.525481 0.40571308 0.52634144 0.72207576 0.6300281 0.27322146 0.29581517
0.17016804 -0.07563221 -0.3164458 0.042505275 0.690244 0.6334796 0.41623908 -0.4527889
0.27003425 -0.36351824 0.3234461 0.20243266 0.52536297 0.1501155 0.0011225295 -0.3340662
0.019820653 0.2541553 0.40165895 -0.13266225 0.36238694 -0.026436616 0.20538937 -0.14960909
0.41995123 -0.381085 -0.092538714 -0.18387944 -0.09556436 -0.37821344 0.33473867 0.2625561
-0.06312745 0.2188143 -0.34066916 -0.52270055 0.03703082 -0.4412775 0.11396825 0.081041664
0.3237532 0.3030934 0.10019944 0.23753537 -0.18865523 -0.07771843 0.45203298 0.354211
0.39257437 -0.12478056 0.5700111 -0.27732363 -0.27681893 -0.26544377 -0.07358023 0.2578074
-0.27913114 0.13340987 0.2640394 0.18011157 -0.005591425 -0.22045031 -0.1121177 -0.10568579
0.5823143 -0.059699133 0.4193509 -0.38956288 0.018979767 -0.29933128 -0.19771825 -0.12312166
00000000: 313f 0a3f 7067 1bbe ec1a 0f3f 02bf 4dbe
00000010: bca8 933d c171 babe 6dd8 2f3f 04b5 08bf
00000020: d26d e7be 0bcb dabe ab59 dcbe 5041 e7bd
00000030: d8b6 01be 0459 c2be 7fe1 a1bc 840f de3e
00000040: c633 923e 66d6 0d3f 8f59 093f 2308 df3e
00000050: 4c3c ad3e a52e febd 46e1 603e 2220 033f
00000060: 5106 f4be 471b 33be 1384 17be 3f7e e0be
00000070: da1a f83d ea37 d2be 021e ffbd 9007 8cbd
00000080: 0fa7 063e da70 b6bc c0ed 5c3e 3f6e 82be
00000090: 53f4 6a3d 2fb2 d53e 5abb c53e e508 b53e
000000a0: d323 c63e 0088 e53e c50a 113f e798 e6bc
000000b0: 8ce0 063e 03bc dc3e 1247 6dbe 2e09 8d3e
000000c0: d9ff c03e a25e 90bd 77d6 ed3d 2c92 93bc
000000d0: 2626 a73e 3981 bdbe ddf3 86bd 4b88 3cbe
000000e0: 51f5 da3e 1dcd 04be ce52 d03d 3965 953e
000000f0: 4654 243f a01a bf3e d18c 7f3e bc88 353e
00000100: 2ee8 743e 7af4 ad3e 1b39 073f ed18 03be
00000110: 178c 29be 0d74 2b3e 2989 1b3e f49f da3e
00000120: a6be 65bd 548e 143f df57 d3be 2d6b a2be
00000130: 6347 92be 2b9c 2a3d d5ca 54be 8b74 663d
00000140: 04c3 193f ba05 0a3e d1d4 503e 0243 823e
00000150: 4076 f53d 650f b33e 2ce1 be3d 1d22 333e
00000160: e81f c8be 5646 f53e 9a3e a0be 614a 103f
00000170: 3ea3 bbbe a10b cd3b 90c1 3dbe 5ad0 2e3e
00000180: edac 1d3f 13cf a13e d6be 053f c8af ee3c
00000190: a078 eebd 46c6 18be 2f42 3b3f 43b2 ccbe
000001a0: 5354 893e 3dd4 8c3e 5678 0c3f dacd e83d
000001b0: be74 69be 85b2 1c3f 91c3 db3d ba1d c23e
000001c0: 00d3 e03e e6ff a93e 0f88 2d3d ecf1 8a3e
000001d0: 2a74 cbbd f588 893e f9ee 093f 0e55 58bd
000001e0: b867 e6bd c28c b5bd 0e7c b5bd df26 f1bd
000001f0: da3e fdbe c310 993e 0103 8cbe 5181 993d
00000200: 8295 c63e 3b06 e6bd 2b26 1cbe a932 13be
00000210: 575f 11be 965f 49bd dcc7 493f 9c6f 89be
00000220: 1023 c33e 6013 5ebe 3b15 2a3d f7c2 91be
00000230: c88d 093e 5ff3 f9bc 1d75 e23e c7b2 173e
00000240: d926 0bbd aa0f b2be 0789 193f 6b30 2f3d
00000250: 1082 883d 8652 aebe b07a f53e 4167 a4bd
00000260: 61d5 2f3f 9c1c d1be 1713 b23e a867 33be
00000270: abf3 32be b2c6 6a3d f361 b9bd 8f0e 533d
00000280: ad54 bbbe 43b7 053f fed2 053f 1964 cd3e
00000290: d17d 0d3f cb19 05bd 9581 1fbd 45c4 b43c
000002a0: cd53 f13e b249 cc3e 7614 4d3e d295 063f
000002b0: 77b6 2e3e 463b 19bf 8679 c4bd a84f 603d
000002c0: 3d01 cd3e ec85 06bf a0b9 cf3e 50be 063f
000002d0: f5d9 383f 8649 213f afe3 8b3e 1675 973e
000002e0: 8840 2e3e 0fe5 9abd 2f05 a2be 031a 2e3d
000002f0: d5b3 303f b82b 223f 4a1d d53e f2d3 e7be
00000300: ee41 8a3e 101f babe ba9a a53e 824a 4f3e
00000310: 307e 063f e1b7 193e d721 933a ba0a abbe
00000320: ec5e a23c a520 823e 3ea6 cd3e 9dd8 07be
00000330: c88a b93e 9a91 d8bc 9751 523e 2033 19be
00000340: d903 d73e 931d c3be f084 bdbd e44a 3cbe
00000350: 3fb7 c3bd 31a5 c1be de62 ab3e c16d 863e
00000360: f748 81bd db10 603e 306c aebe b4cf 05bf
00000370: a1ad 173d 20ef e1be 3068 e93d 2cf9 a53d
00000380: fbc2 a53e 0f2f 9b3e 5d35 cd3d 793c 733e
00000390: d62e 41be d72a 9fbd de70 e73e 255b b53e
000003a0: 82ff c83e f38c ffbd 3fec 113f 5dfd 8dbe
000003b0: 36bb 8dbe 3fe8 87be 3bb1 96bd 55ff 833e
000003c0: 47ea 8ebe 999c 083e 2c30 873e 2b6f 383e
000003d0: 4638 b7bb babd 61be f79d e5bd cb71 d8bd
000003e0: 8d12 153f 1487 74bd 29b5 d63e c974 c7be
000003f0: 757b 9b3c f341 99be a776 4abe 3527 fcbd

layers.0.bias f4 [8]
0.5880077 0.67753255 0.08675895 0.7345715 0.27640438 0.55675095 0.3156386 0.79974854
00000000: ac87 163f c672 2d3f adae b13d e10c 3c3f
00000010: e084 8d3e 3b87 0e3f 629b a13e 52bc 4c3f

layers.2.weight f4 [8, 8]
0.6488302 -0.1415098 -0.17718914 -0.28694218 0.8627479 1.3804622 0.2145691 -0.14103733
0.91107476 0.5252002 -0.9049461 0.94941795 -0.41230533 0.15712497 -0.63606364 0.5063672
-0.48705214 1.1868191 -0.08981334 0.53653026 -0.5313776 -0.9331104 0.7956852 0.9570014
-0.7555816 -0.028165204 -0.46126002 1.324068 -0.31113276 0.46412656 0.81608135 0.5781621
0.9394005 0.901505 0.73243266 -1.0992737 0.5497762 0.23461048 0.095877685 0.39363366
-0.36290374 -0.22837041 0.76295507 -0.3859422 0.81952065 0.7492318 0.9405805 0.81712705
0.33444846 -0.5263519 0.91543806 0.4665486 0.64417344 0.9155351 0.4674945 -0.002438093
0.8788109 1.0751638 0.80605596 -1.2775939 0.688969 0.4829289 0.122027084 0.18502395
00000000: bc19 263f f2e7 10be 1271 35be 16ea 92be
00000010: 0cdd 5c3f fcb2 b03f 01b8 5b3e 176c 10be
00000020: 323c 693f 8573 063f 8caa 67bf 0e0d 733f
00000030: af19 d3be 5ee5 203e 11d5 22bf 48a1 013f
00000040: e65e f9be b0e9 973f 0ef0 b7bd 0c5a 093f
00000050: 5d08 08bf 53e0 6ebf 06b2 4b3f 0bfe 743f
00000060: cc6d 41bf b7ba e6bc 462a ecbe 0f7b a93f
00000070: cb4c 9fbe ffa1 ed3e b5ea 503f 6e02 143f
00000080: 8d7c 703f 08c9 663f b580 3b3f 00b5 8cbf
00000090: 22be 0c3f bb3d 703e 855b c43d 5a8a c93e
000000a0: 85ce b9be efd9 69be 0651 433f 379a c5be
000000b0: 1bcc 513f a8cd 3f3f e2c9 703f 3d2f 513f
000000c0: d43c ab3e 00bf 06bf 265a 6a3f 75df ee3e
000000d0: 8de8 243f 8260 6a3f 705b ef3e 6ac8 1fbb
000000e0: c0f9 603f f89e 893f af59 4e3f 3288 a3bf
000000f0: 4660 303f 7542 f73e 56e9 f93d eb76 3d3e

layers.2.bias f4 [8]
0.48450932 0.83532596 0.21395847 0.22122777 -0.251219 0.29638392 -0.35419238 0.07530149
00000000: 9b11 f83e ecd7 553f ee17 5b3e 8889 623e
00000010: c79f 80be a2bf 973e b458 b5be ab37 9a3d

layers.4.weight f4 [7, 8]
0.45785415 -1.321619 -0.9473163 0.6601791 -0.7502521 0.17598426 0.5950134 -1.1704277
-0.66840285 0.101229474 0.40502146 -1.247229 0.3684424 -1.0459992 -1.1463088 0.07540161
0.83310753 0.28197294 -1.630732 -1.5355788 0.22763325 0.028662601 -0.47665724 0.17260133
-0.85166126 0.1880434 0.7844286 0.61437315 -1.2048337 0.10987338 -0.6994028 -1.4449129
-0.03889097 -1.851813 -1.1298063 -0.794594 0.48434737 0.3907891 0.377271 0.3098334
-0.122995324 -1.1929411 0.4232673 -0.18100505 -0.08351615 0.45981875 0.120822944 -0.37367392
0.11236688 1.1088153 -1.463828 0.14164628 -1.101593 -0.9666035 0.44592974 -1.2709768
00000000: dc6b ea3e d02a a9bf 5283 72bf 7f01 293f
00000010: 8610 40bf 3835 343e cc52 183f 93d0 95bf
00000020: 731c 2bbf 6651 cf3d f95e cf3e 33a5 9fbf
00000030: 7ba4 bc3e 4de3 85bf 3fba 92bf 296c 9a3d
00000040: 8946 553f c25e 903e d4bb d0bf d98d c4bf
00000050: b118 693e d5cd ea3c 6b0c f4be 67be 303e
00000060: 7906 5abf 738e 403e 50d0 483f 8f47 1d3f
00000070: fe37 9abf 4b05 e13d 100c 33bf e8f2 b8bf
00000080: 234c 1fbd 3508 edbf 7e9d 90bf 836a 4bbf
00000090: 61fc f73e 8215 c83e aa29 c13e 7ca2 9e3e
000000a0: f9e4 fbbd 4bb2 98bf 7eb6 d83e 6359 39be
000000b0: 840a abbd 5d6d eb3e 0572 f73d 3052 bfbe
000000c0: 9b20 e63d a9ed 8d3f b75e bbbf b90b 113e
000000d0: 0001 8dbf 5473 77bf e750 e43e 5eaf a2bf

layers.4.bias f4 [7]
-0.23727807 -0.073509455 0.37144318 -0.00048484906 -0.4081335 -0.047836065 -0.00012835709
00000000: 06f9 72be 208c 96bd cd2d be3e 5733 feb9
00000010: e0f6 d0be c0ef 43bd 9897 06b9
